data.pth (torch, 4081 bytes, 6 tensors)

l1.weight f4 [8, 18]
-0.14453948 -0.33811295 -0.02402705 0.11463298 -0.37849253 0.32230467 0.5007404 0.38643402
0.087136574 0.26826116 0.16938652 -0.18963864 0.27252322 0.24927829 -0.12462885 -0.045155764
0.16821155 -0.25372764 0.22439004 0.6881388 0.570278 -0.35375944 0.5337384 -0.3238024
-0.49400625 -0.5000273 0.5796503 0.29141185 0.45145854 0.33516428 -0.2777857 0.24849813
0.5870615 0.5058441 0.4631854 0.38324475 0.26621297 0.4556425 0.42932245 -0.18925947
0.47993067 -0.31532425 -0.3151987 -0.29318994 0.3871257 0.16861096 0.48699346 0.4264414
-0.10405538 0.5894065 0.19914067 0.40298244 0.37429798 0.2561093 0.5364161 -0.44986677
0.18871768 0.38010672 -0.44993687 0.634307 0.38837555 0.5466041 0.46835527 0.27664882
0.3423252 0.27839687 0.26145247 0.07697377 -0.29485312 0.25184056 0.18530293 -0.15504211
-0.12646976 -0.34757158 -0.07594971 0.36010578 -0.3478405 0.61100495 0.23206969 0.64430803
0.28681916 0.40783697 0.20254123 -0.06392421 0.53923756 0.39520425 -0.120091505 -0.17717686
0.43473685 -0.22758952 -0.041126393 0.74655634 -0.34559518 0.2007938 0.76880866 0.4249212
0.5773557 0.29780012 -0.19320665 -0.08323544 -0.11105281 -0.13532028 0.45472768 -0.199587
0.58450025 -0.41056103 -0.53996307 0.34103382 -0.14769374 -0.25331432 -0.01998218 0.15314247
-0.2533621 0.4472086 0.27333045 0.24902613 -0.17743416 -0.0424961 0.05492323 -0.007830599
0.29108468 0.0124775665 -0.2856536 -0.077791005 -0.08841088 0.031348065 -0.040428832 0.14921673
-0.126919 -0.12776545 0.115355805 -0.20665856 -0.026446894 0.007090479 0.041628644 0.18948682
-0.06023355 0.09824692 0.22936766 -0.08873983 -0.09101646 -0.21194051 -0.071609035 0.1774302
00000000: 2802 14be 241d adbe 60d4 c4bc b2c4 ea3d
00000010: c6c9 c1be 1e05 a53e 8630 003f aeda c53e
00000020: a974 b23d 8759 893e a973 2d3e a230 42be
00000030: 2a88 8b3e cf42 7f3e 693d ffbd 40f5 38bd
00000040: a63f 2c3e 97e8 81be 81c6 653e dd29 303f
00000050: bdfd 113f f51f b5be 14a3 083f 6ec9 a5be
00000060: 63ee fcbe ca01 00bf f663 143f ef33 953e
00000070: 9325 e73e a79a ab3e ed39 8ebe 4b76 7e3e
00000080: aa49 163f 007f 013f a326 ed3e a838 c43e
00000090: 114d 883e f949 e93e 27d0 db3e 3ccd 41be
000000a0: 79b9 f53e 2e72 a1be b961 a1be fe1c 96be
000000b0: 5735 c63e 5aa8 2c3e 3557 f93e 8756 da3e
000000c0: fd1a d5bd 58e3 163f 88eb 4b3e b753 ce3e
000000d0: fca3 bf3e c220 833e 9152 093f f054 e6be
000000e0: 353f 413e 599d c23e 205e e6be f261 223f
000000f0: 29d9 c63e 3fee 0b3f 43cc ef3e eaa4 8d3e
00000100: 4045 af3e 098a 8e3e 19dd 853e 6da4 9d3d
00000110: fdf6 96be 3ff1 803e 0dc0 3d3e 5cc3 1ebe
00000120: 4a81 01be e7f4 b1be 868b 9bbd c95f b83e
00000130: 2618 b2be d26a 1c3f ada3 6d3e 5ff1 243f
00000140: f6d9 923e 02d0 d03e f866 4f3e b2ea 82bd
00000150: 790b 0a3f 3658 ca3e 89f2 f5bd da6d 35be
00000160: d495 de3e 3a0d 69be 2674 28bd 511e 3f3f
00000170: daf1 b0be e49c 4d3e a5d0 443f 468f d93e
00000180: 95cd 133f 4279 983e f7d7 45be 5877 aabd
00000190: a86f e3bd 6691 0abe 11d2 e83e 8960 4cbe
000001a0: cfa1 153f 0e35 d2be 053b 0abf fc9b ae3e
000001b0: 073d 17be 6ab2 81be abb1 a3bc 61d1 1c3e
000001c0: adb8 81be 87f8 e43e f8f1 8b3e b500 7f3e
000001d0: 4db1 35be 6410 2ebd 2ef7 603d ea4b 00bc
000001e0: 0d09 953e b56e 4c3c 3041 92be e450 9fbd
000001f0: c310 b5bd d466 003d b498 25bd 45cc 183e
00000200: 0ef7 01be f2d4 02be aa3f ec3d 4d9e 53be
00000210: 28a7 d8bc 4057 e83b cc82 2a3d d508 423e
00000220: 74b7 76bd ae35 c93d 5bdf 6a3e 3abd b5bd
00000230: d666 babd ef06 59be c2a7 92bd 43b0 353e

l1.bias f4 [8]
0.37827003 0.63145274 0.31529287 0.44977844 0.34754288 0.9325423 0.253389 -0.20079793
00000000: 9cac c13e e3a6 213f 116e a13e 5c49 e63e
00000010: 24f1 b13e 18bb 6e3f 34bc 813e f99d 4dbe

l2.weight f4 [8, 8]
0.58468276 0.19174121 -0.10991615 0.6624253 0.594941 -0.17099592 0.12797174 0.12945724
0.55295116 -0.27637452 -0.7579179 0.769802 0.6135002 0.5004754 0.90390056 0.22057274
-0.05479838 0.5047648 0.255752 0.4680144 0.3033007 -0.53359765 -0.25218534 -0.05461034
0.32273117 0.44883224 0.34813762 0.49235293 -0.051681325 -0.59684974 -0.28011376 0.2674971
0.3135538 0.5127765 0.6389752 0.43315288 0.27534398 -0.74845976 -0.3660714 -0.19519933
-0.15952137 0.9115105 0.51380867 -0.66981107 -0.64459604 1.0121094 -0.67585874 0.24203017
0.82048744 -0.55006504 -0.5608745 0.41818 0.6166907 0.54355836 0.5372238 0.116996825
-0.29822186 -0.21982843 -0.3120545 -0.29272234 -0.3379986 0.32150325 0.15862617 -0.106612384
00000000: c5ad 153f cf57 443e b81b e1bd b494 293f
00000010: 0e4e 183f 8e19 2fbe 060b 033e 7090 043e
00000020: 358e 0d3f f680 8dbe e806 42bf be11 453f
00000030: 590e 1d3f 281f 003f 0766 673f d2dd 613e
00000040: 4474 60bd 4438 013f edf1 823e 959f ef3e
00000050: 3b4a 9b3e db99 08bf 701e 81be 18af 5fbd
00000060: 053d a53e 57cd e53e 183f b23e af15 fc3e
00000070: ccaf 53bd 25cb 18bf 126b 8fbe 61f5 883e
00000080: 208a a03e 5245 033f e193 233f 37c6 dd3e
00000090: e3f9 8c3e 0f9b 3fbf b66d bbbe 55e2 47be
000000a0: 9259 23be c158 693f f788 033f bd78 2bbf
000000b0: 3f04 25bf cd8c 813f 1405 2dbf c2d6 773e
000000c0: 770b 523f 10d1 0cbf 7995 0fbf b01b d63e
000000d0: 71df 1d3f a426 0b3f 8087 093f 089c ef3d
000000e0: 89b0 98be b41a 61be 9cc5 9fbe b4df 95be
000000f0: 270e adbe 139c a43e e66e 223e 9857 dabd

l2.bias f4 [8]
0.09545208 0.07287086 -0.014136444 0.12236298 0.07493926 0.6267797 0.16144107 -0.273602
00000000: 617c c33d 513d 953d 8b9c 67bc 7199 fa3d
00000010: c179 993d a274 203f cf50 253e 9015 8cbe

l3.weight f4 [3, 8]
0.16254821 -0.2684599 0.9130046 0.3299451 0.60321426 -0.7179776 -0.50279826 -0.05922538
-0.22193924 -0.61566347 -0.92429876 -0.5468015 -0.8026202 0.85228914 -0.6293288 -0.09475529
0.28374055 0.83103585 -0.59125465 -0.57587886 -0.5899224 -0.71869045 0.942403 -0.124371976
00000000: 0a73 263e 9373 89be abba 693f 90ee a83e
00000010: 406c 1a3f 61cd 37bf 63b7 00bf 5096 72bd
00000020: 0a44 63be 1f9c 1dbf d89e 6cbf 2ffb 0bbf
00000030: 8478 4dbf 9f2f 5a3f b11b 21bf 100f c2bd
00000040: 7146 913e c4be 543f 775c 17bf cc6c 13bf
00000050: 2805 17bf 19fc 37bf 5341 713f bcb6 febd

l3.bias f4 [3]
0.00017013034 0.2129506 0.07378842
00000000: 0465 3239 b90f 5a3e 621e 973d
